…
W tensorflow/core/platform/cpu_feature_guard.cc:45] The TensorFlow library wasn't compiled to use FMA instructions, but these are available on your machine and could speed up CPU computations.
/home/akash/projects/thesis/lstm_anomaly_thesis/models/lstm.py:116: UserWarning: Update your `Dense` call to the Keras 2 API: `Dense(units=1)`
  self.model.add(Dense(output_dim=self.layers['output']))
_________________________________________________________________
Layer (type)                 Output Shape              Param #
=================================================================
lstm_1 (LSTM)                (None, 8, 60)             14880
_________________________________________________________________
dropout_1 (Dropout)          (None, 8, 60)             0
_________________________________________________________________
lstm_2 (LSTM)                (None, 30)                10920
_________________________________________________________________
dropout_2 (Dropout)          (None, 30)                0
_________________________________________________________________
dense_1 (Dense)              (None, 1)                 31
_________________________________________________________________
repeat_vector_1 (RepeatVecto (None, 5, 1)              0
_________________________________________________________________
activation_1 (Activation)    (None, 5, 1)              0
=================================================================
Total params: 25,831
Trainable params: 25,831
Non-trainable params: 0
_________________________________________________________________
Train on 11947 samples, validate on 1307 samples
Epoch 1/100
3s - loss: 0.9065 - val_loss: 0.3158
Epoch 2/100
3s - loss: 0.1990 - val_loss: 0.1745
Epoch 3/100
2s - loss: 0.1638 - val_loss: 0.1592
Epoch 4/100
…
